"backend: tensorflow\nclass_name: Sequential\nconfig:\n  layers:\n  - class_name:\
  \ Conv2D\n    config:\n      activation: relu\n      activity_regularizer: null\n\
  \      batch_input_shape: !!python/tuple [null, 28, 28, 1]\n      bias_constraint:\
  \ null\n      bias_initializer:\n        class_name: Zeros\n        config: {}\n\
  \      bias_regularizer: null\n      data_format: channels_last\n      dilation_rate:\
  \ &id001 !!python/tuple [1, 1]\n      dtype: float32\n      filters: 16\n      kernel_constraint:\
  \ null\n      kernel_initializer:\n        class_name: VarianceScaling\n       \
  \ config: {distribution: uniform, mode: fan_avg, scale: 1.0, seed: null}\n     \
  \ kernel_regularizer: null\n      kernel_size: !!python/tuple [3, 3]\n      name:\
  \ conv2d_1\n      padding: same\n      strides: &id002 !!python/tuple [1, 1]\n \
  \     trainable: true\n      use_bias: true\n  - class_name: MaxPooling2D\n    config:\n\
  \      data_format: channels_last\n      name: max_pooling2d_1\n      padding: valid\n\
  \      pool_size: !!python/tuple [2, 2]\n      strides: !!python/tuple [2, 2]\n\
  \      trainable: true\n  - class_name: Conv2D\n    config:\n      activation: relu\n\
  \      activity_regularizer: null\n      bias_constraint: null\n      bias_initializer:\n\
  \        class_name: Zeros\n        config: {}\n      bias_regularizer: null\n \
  \     data_format: channels_last\n      dilation_rate: *id001\n      filters: 32\n\
  \      kernel_constraint: null\n      kernel_initializer:\n        class_name: VarianceScaling\n\
  \        config: {distribution: uniform, mode: fan_avg, scale: 1.0, seed: null}\n\
  \      kernel_regularizer: null\n      kernel_size: !!python/tuple [3, 3]\n    \
  \  name: conv2d_2\n      padding: same\n      strides: *id002\n      trainable:\
  \ true\n      use_bias: true\n  - class_name: MaxPooling2D\n    config:\n      data_format:\
  \ channels_last\n      name: max_pooling2d_2\n      padding: valid\n      pool_size:\
  \ !!python/tuple [2, 2]\n      strides: !!python/tuple [2, 2]\n      trainable:\
  \ true\n  - class_name: Conv2D\n    config:\n      activation: relu\n      activity_regularizer:\
  \ null\n      bias_constraint: null\n      bias_initializer:\n        class_name:\
  \ Zeros\n        config: {}\n      bias_regularizer: null\n      data_format: channels_last\n\
  \      dilation_rate: *id001\n      filters: 64\n      kernel_constraint: null\n\
  \      kernel_initializer:\n        class_name: VarianceScaling\n        config:\
  \ {distribution: uniform, mode: fan_avg, scale: 1.0, seed: null}\n      kernel_regularizer:\
  \ null\n      kernel_size: !!python/tuple [3, 3]\n      name: conv2d_3\n      padding:\
  \ same\n      strides: *id002\n      trainable: true\n      use_bias: true\n  -\
  \ class_name: MaxPooling2D\n    config:\n      data_format: channels_last\n    \
  \  name: max_pooling2d_3\n      padding: valid\n      pool_size: !!python/tuple\
  \ [2, 2]\n      strides: !!python/tuple [2, 2]\n      trainable: true\n  - class_name:\
  \ Dropout\n    config: {name: dropout_1, noise_shape: null, rate: 0.3, seed: null,\
  \ trainable: true}\n  - class_name: Flatten\n    config: {data_format: channels_last,\
  \ name: flatten_1, trainable: true}\n  - class_name: Dense\n    config:\n      activation:\
  \ relu\n      activity_regularizer: null\n      bias_constraint: null\n      bias_initializer:\n\
  \        class_name: Zeros\n        config: {}\n      bias_regularizer: null\n \
  \     kernel_constraint: null\n      kernel_initializer:\n        class_name: VarianceScaling\n\
  \        config: {distribution: uniform, mode: fan_avg, scale: 1.0, seed: null}\n\
  \      kernel_regularizer: null\n      name: dense_1\n      trainable: true\n  \
  \    units: 500\n      use_bias: true\n  - class_name: Dropout\n    config: {name:\
  \ dropout_2, noise_shape: null, rate: 0.4, seed: null, trainable: true}\n  - class_name:\
  \ Dense\n    config:\n      activation: softmax\n      activity_regularizer: null\n\
  \      bias_constraint: null\n      bias_initializer:\n        class_name: Zeros\n\
  \        config: {}\n      bias_regularizer: null\n      kernel_constraint: null\n\
  \      kernel_initializer:\n        class_name: VarianceScaling\n        config:\
  \ {distribution: uniform, mode: fan_avg, scale: 1.0, seed: null}\n      kernel_regularizer:\
  \ null\n      name: dense_2\n      trainable: true\n      units: 10\n      use_bias:\
  \ true\n  name: sequential_1\nkeras_version: 2.2.4\n"
